our_model.tar (torch, 1707 bytes, 3 tensors)

linear1.weight f4 [4, 2]
00000000: 426a 16bf 9517 e9bd 913b 56c0 7f27 4b40
00000010: f85b d23e 624b a73e 3c57 3640 e184 44c0
-0.58755887 -0.11381451 -3.3473856 3.1742857 0.41085792 0.326747 2.8490744 -3.0706103

linear1.bias f4 [4]
00000000: a31c 0cbf 57af cbbf d877 693f f4c1 abbf
-0.54731196 -1.5912884 0.9119849 -1.3418565

linear2.weight f4 [1, 4]
00000000: a845 84bf af7d 9540 7795 9f3f e9b8 9140
-1.0333757 4.671592 1.2467488 4.553822
